…
tdout'}, 'file': {'class': 'logging.FileHandler', 'formatter': 'simple', 'filename': 'hydra_train.log'}}, 'root': {'level': 'INFO', 'handlers': ['console', 'file']}, 'disable_existing_loggers': False}}
[2024-03-02 14:51:14,419][fairseq.tasks.sentence_prediction][INFO] - [input] dictionary: 50265 types
[2024-03-02 14:51:14,425][fairseq.tasks.sentence_prediction][INFO] - [label] dictionary: 9 types
[2024-03-02 14:51:15,946][fairseq_cli.train][INFO] - RobertaModel(
  (encoder): RobertaEncoder(
    (sentence_encoder): TransformerEncoder(
      (dropout_module): FairseqDropout()
      (embed_tokens): Embedding(50265, 768, padding_idx=1)
      (embed_positions): LearnedPositionalEmbedding(514, 768, padding_idx=1)
      (layernorm_embedding): FusedLayerNorm(torch.Size([768]), eps=1e-05, elementwise_affine=True)
      (layers): ModuleList(
        (0-11): 12 x TransformerEncoderLayerBase(
          (self_attn): MultiheadAttention(
            (dropout_module): FairseqDropout()
            (k_proj): Linear(in_features=768, out_features=768, bias=True)
            (v_proj): Linear(in_features=768, out_features=768, bias=True)
            (q_proj): Linear(in_features=768, out_features=768, bias=True)
            (out_proj): Linear(in_features=768, out_features=768, bias=True)
          )
          (self_attn_layer_norm): FusedLayerNorm(torch.Size([768]), eps=1e-05, elementwise_affine=True)
          (dropout_module): FairseqDropout()
          (activation_dropout_module): FairseqDropout()
          (fc1): Linear(in_features=768, out_features=3072, bias=True)
          (fc2): Linear(in_features=3072, out_features=768, bias=True)
          (final_layer_norm): FusedLayerNorm(torch.Size([768]), eps=1e-05, elementwise_affine=True)
        )
      )
    )
    (lm_head): RobertaLMHead(
      (dense): Linear(in_features=768, out_features=768, bias=True)
      (layer_norm): FusedLayerNorm(torch.Size([768]), eps=1e-05, elementwise_affine=True)
    )
  )
  (classification_heads): ModuleDict(
    (sentence_classification_head): RobertaClassificationHead(
      (dense): Linear(in_features=768, out_features=768, bias=True)
      (dropout): Dropout(p=0.0, inplace=False)
      (out_proj): Linear(in_features=768, out_features=2, bias=True)
    )
  )
)
[2024-03-02 14:51:15,948][fairseq_cli.train][INFO] - task: SentencePredictionTask
[2024-03-02 14:51:15,949][fairseq_cli.train][INFO] - model: RobertaModel
[2024-03-02 14:51:15,950][fairseq_cli.train][INFO] - criterion: SentencePredictionCriterion
[2024-03-02 14:51:15,951][fairseq_cli.train][INFO] - num. shared model params: 125,288,795 (num. trained: 125,288,795)
…
